Python_202111/03.MachineLearning/code/deeplearning/pytorchdemo/results/model.pth (torch, 89871 bytes, 8 tensors)

conv1.weight f4 [10, 1, 5, 5]
00000000: 6356 84bd 6f5b a23e 6cb5 2a3e 8cf5 7a3e
00000010: 9e0c 633e 1581 173e 594b 893e 02da 583e
00000020: 823e 4e3e 89bf 4a3d bb12 66bd 49cc 41bd
00000030: 3bd7 9c3b 892f 81bd bc3d d33d 2d81 87bd
00000040: 3f7e 72be 6114 a6be 9c3f 7abe edbd 6abe
00000050: 26fa 10be f23b 22be bc03 03be 659e dcbd
00000060: 726f 76be 8cd4 513e 5630 a03e 8461 b63e
00000070: 7b43 233e ab57 48be 2a0d 75be d8b6 b6bc
00000080: d163 c63e 49dd 993e 6845 a73e 93c3 a4be
00000090: 65d4 a33c 6ac6 b6bc da63 a73e ff46 943e
000000a0: 5cc5 c8be 8b9c ebbd cf6f 69be d90b c2bd
000000b0: a4cd 813d a369 76be 851c b7be fc91 90be
000000c0: 5007 18be eabb 86bd 6d0d a73e e17a d53e
000000d0: a348 2b3e e4f8 04be 2dfc e43d 318d 633c
000000e0: 360c 18bd fc1f 7f3e a0f2 243e 5b9a 4b3e
000000f0: 6eb1 3ebe 4e6b a6bb ee27 023e 4cac f93d
00000100: 72c9 23be 71d2 17be b26b 3d3e 1f97 7e3d
00000110: 3a86 073e e606 c9bd ddc1 af3c 14af d73d
00000120: 4b17 e13d 7a62 aa3c 8858 b6be 1e65 fc3d
00000130: 0eaf 38be 7876 57be 4022 a6bd d728 cfbd
00000140: 1422 563e e553 babd 2652 73be 6967 9e3d
00000150: 459d 52bd 3235 733e 46fe 303e 99f5 07be
00000160: 51c4 5d3d f9f4 dd3d 4448 cebc 134b 113d
00000170: 0ad1 123e c295 d73d f719 56bc dd03 a93d
00000180: 15f5 ac3e 967a 3d3d bfd2 2f3e 9c8b 293e
00000190: d317 38be c377 5ebe 60e7 133e 7eb7 2b3d
000001a0: 1afb 2c3e c71e a73d 42df 273e 4bf2 9d3e
000001b0: 7f35 a93e 8934 cfbd 8d27 bf3d ad65 2f3e
000001c0: d695 1b3e a14b 383e a3ba 07be ae71 19be
000001d0: 92e4 68be 12b4 c5bd b226 6e3e ecf2 33bd
000001e0: 99ac b0bd fa83 a9be 916e a1be 72f2 dbbc
000001f0: c7af 443e 2d19 923e 68fa db3c 5bfd 143e
00000200: dbc3 5c3e 16c1 e03d 2017 383e 12fa 833e
00000210: 5b7b 3c3e 9cc7 7b3d b32a 3ebe e727 57be
00000220: f728 18be 9de8 6bbd 231a 09be adb3 b43d
00000230: 020c 373d d711 d1bd d6a4 c73d d2e8 233e
00000240: c056 933e d8bc 4d3e 113b c8bc 2645 843e
00000250: f4db 443d eb3a 153d e6d2 abbe 36e6 a7be
00000260: 50ea 5cbe 881a cb3b 7c7d 9e3e 9aa7 c3be
00000270: 6c94 8dbe 64b6 8e3d 0215 743e 0533 be3e
00000280: d1bb d7be ebb2 60bd 244f 303d 2f3e 9d3e
00000290: 1a68 0d3e 56be a6be 36a8 62bd 8e1c 8f3e
000002a0: 411e a83e de2d 6a3e 982a a63d 494f 513e
000002b0: 004f 783e be8e 023e f3fb 80bd bbb0 bf3d
000002c0: 8e70 c1bd 35d3 9abd 8da9 9ebe 0554 59be
000002d0: 73e5 c6bd 6774 8c3d 8e6d b2be 7475 d4be
000002e0: c6a9 8dbe 9ffb 02bd 8ec5 073d 2cff a1bd
000002f0: 11c6 00be 833e 273c 1c8d 733e 8bd1 78bd
00000300: e4b9 a93e c120 d93e 0194 df3e b831 3dbd
00000310: 4d17 6c3e 9aa3 0f3e 4e75 d43e 6125 2c3d
00000320: 4f11 8e3e 5589 103e 697a 3fbd ec4e 4cbe
00000330: f8c5 4fbe a1c4 933e 8f9d 503e f080 08bc
00000340: 3cb9 edbe ca81 18be 9d6d aa3e bfeb b33e
00000350: 1bed 8e3d 185c c7be a73e a3be 7952 a83e
00000360: 50ab 553d 3c6a 673e 7d76 8dbe 7d49 96be
00000370: 841a 5c3e b88b 1e3d 2b7c e83b c193 7d3d
00000380: 5083 213d 2d01 073e ecd7 08bd b863 5bbd
00000390: f2b3 a73e f0c8 b23d c72f 5dbe d838 c439
000003a0: 3633 05be e689 243e 78aa 753e c40f 9dbe
000003b0: ee69 abbe 1ffc 42be e4bf b4bd ff06 18bd
000003c0: ceeb 1dbe 300c 4ebe d7d9 c9be fb01 afbe
000003d0: 082d 9bbe 577d 803e aa62 313e 625d 80bd
000003e0: 77e6 97bd dc1e a9bd
-0.064617895 0.31710383 0.1667077 0.24507731 0.22172782 0.14795335 0.26815298 0.21176913
0.20141032 0.04949907 -0.056170207 -0.047313962 0.0047863997 -0.06307895 0.10314509 -0.06616435
-0.23680972 -0.32437423 -0.24438328 -0.22924013 -0.14157924 -0.1584318 -0.12794393 -0.10772399
-0.2406595 0.20491236 0.31286877 0.35621274 0.1594371 -0.19564693 -0.23930803 -0.022303984
0.3874803 0.3005164 0.3267014 -0.3218046 0.019998739 -0.022311408 0.32693368 0.28960416
-0.39213073 -0.115044676 -0.22796558 -0.09474916 0.06338051 -0.24063735 -0.35763946 -0.28236377
-0.1484654 -0.065788105 0.3262743 0.41695312 0.16726927 -0.12985569 0.11180911 0.013888643
-0.03712102 0.24914545 0.16108179 0.198831 -0.18622372 -0.0050787097 0.12710544 0.12191066
-0.15994814 -0.14826371 0.18498114 0.06215584 0.13234797 -0.09815769 0.021454746 0.105314404
0.10990771 0.02079891 -0.3561442 0.12323974 -0.18035528 -0.21041286 -0.081120014 -0.101152115
0.20911437 -0.09098033 -0.23761806 0.07734568 -0.051419515 0.23750761 0.17284498 -0.13277282
0.0541423 0.108377405 -0.025180943 0.035471987 0.14337555 0.10526611 -0.013067714 0.0825269
0.33780733 0.046259485 0.17170237 0.16557163 -0.17977838 -0.21725373 0.14443731 0.04192304
0.16892663 0.08160167 0.1639376 0.30848917 0.33048627 -0.10117442 0.093337156 0.1712863
0.15193877 0.179976 -0.1325479 -0.14984772 -0.22743443 -0.09653486 0.23256949 -0.04393284
-0.086266704 -0.33108503 -0.31529668 -0.026849005 0.19207679 0.28534833 0.026852801 0.14549772
0.21559088 0.10974328 0.17977571 0.25776726 0.18406431 0.06146966 -0.18570976 -0.21011315
-0.14859377 -0.057594884 -0.13388877 0.08823333 0.044689186 -0.10208481 0.09748237 0.16006783
0.28777122 0.2009157 -0.024442228 0.25834006 0.048061326 0.03643314 -0.3355934 -0.32792825
-0.21573758 0.006198231 0.30955112 -0.38213807 -0.276523 0.06968382 0.23836139 0.371483
-0.4213548 -0.05485813 0.043044224 0.30711505 0.13809243 -0.3256709 -0.0553362 0.27951473
0.32835582 0.2286906 0.08113593 0.20440401 0.24248886 0.12749764 -0.062980555 0.093598805
-0.09445296 -0.07559816 -0.30988732 -0.21223457 -0.09711733 0.068581395 -0.3484921 -0.4149586
-0.2766859 -0.031978246 0.033147387 -0.07909998 -0.12575556 0.010207775 0.23784298 -0.06074671
0.33149636 0.42407802 0.43667606 -0.046189994 0.23055764 0.14027253 0.41495746 0.042027835
0.2774758 0.14114888 -0.0467476 -0.19951981 -0.20290363 0.28860953 0.20372604 -0.008331522
-0.46430385 -0.1489326 0.33286753 0.35140797 0.06978818 -0.3893745 -0.31883737 0.32875422
0.05216533 0.22599119 -0.27629462 -0.29352942 0.2149449 0.038707465 0.00709488 0.061908487
0.03943187 0.13184042 -0.033409044 -0.053561896 0.32754475 0.08729732 -0.21600257 0.00037426385
-0.13007817 0.16068229 0.2399081 -0.3067609 -0.33479255 -0.19041489 -0.08825663 -0.037116047
-0.15421984 -0.20121837 -0.3942401 -0.34181198 -0.30307794 0.25095627 0.17322794 -0.06267811
-0.074170046 -0.08257839

conv1.bias f4 [10]
00000000: 2b30 9ebc 1b71 58bc c6c5 313e 5aef e33d
00000010: b163 ef3d 4169 133c b766 e03d 6f00 e43d
00000020: 6d09 eabd 6469 f23d
-0.019310078 -0.01321056 0.17360601 0.11129637 0.116889365 0.008997262 0.10957091 0.11132895
-0.11427579 0.11836508

conv2.weight f4 [20, 10, 5, 5]
00000000: 50d9 18bb 8d31 9dbd d38f cc3c afb8 dbbc
00000010: a650 4e3d 97e1 0abd 96de 63bc ba68 eabb
00000020: 1714 a5bc c5df dbbb e0c1 c5bc d0f3 97bd
00000030: 9980 c6bd 4c8f 3fbb a1c0 17bd 2e07 23bd
00000040: d847 6bbd d489 39bc d90b b2bc 974c 60bd
00000050: 5c64 97bd 2663 92bd 3a16 c8bd 11d3 59b9
00000060: 725f 3bbd e352 4c3d 6617 b0bb 8a62 2abd
00000070: b875 9c3d 3882 9b3d 365a 543d 7743 98bd
00000080: e1f5 ddbd 2474 a3bd cb29 03be fb69 79bd
00000090: 4921 96bd 67f2 c6bd cff1 6abd cf54 97bd
000000a0: ca86 e1bd 3ef3 00be 36a6 d0bd 0a61 1cbd
000000b0: 4b49 d9bd 9576 bebd e48a f0bd 8091 8abd
000000c0: cfa5 c8bc 0439 fc3b b33e bb3d f9da 2dbd
000000d0: 8f3d a3bc 56a7 623d 4a20 9a3d 0e3b 7a3d
000000e0: 8463 41bd c071 0fbd c43c 55bc c842 3e3c
000000f0: 9482 f83c 243e b7bd a332 4cbb 5eb7 8c3d
00000100: f6e6 163c f98b 5ebd f620 19bb ea3c da3a
00000110: f5fb 393d 8ba7 d0bd c63c 26bd 0a2a c3bd
00000120: be96 bbbd 9fac 0dbd 58c0 62bc 29d6 3a3b
00000130: bf21 4ebd 501f 85bd f9a3 9cbd fe82 853d
00000140: 10f4 26bd 3a11 3cbd ac60 9cbc 052b d0bc
00000150: 0d7e 2bbd 464b 85bd 96b6 b53c 0209 223c
00000160: 4b5c aebc 47a7 d8bd 9a1f b7bb 14a3 fe3b
00000170: a101 0a3d 5172 983a 1185 16bc e2ff 8bbc
00000180: a003 93bd 09d5 ddbd 3d09 2abc 4199 d6bb
00000190: cef5 1f3d fece 48bd b400 82bd a233 2ebd
000001a0: c8c9 51bc 5e56 9fbc 0ed4 fabd 912f 25bd
000001b0: 9b34 9dbd 067b 23bd 58e9 24bc c2f8 b6bd
000001c0: 356e 3bbd 3eea 6d3d acce 8c3d 8982 a4bd
000001d0: 6b66 a2bd b6d7 0abd 6a59 e03d 126a a1bd
000001e0: d2f3 14be b1ef fbbc 2ee2 eb3b 973c ad3c
000001f0: 4e3c 5fbd e07d d3bc 8673 14bd f24f 0d3d
00000200: 855f 873c e9f2 003c fb23 eb3b a20e 86bd
00000210: 1c10 c3bb 6125 0ebd 8cc0 3c3d 11a9 43bd
00000220: 4b15 fabd c26b 003c f143 cebc 2e7c 98bd
00000230: 9bef bdbd b57d 23be 28d5 cfbd ac92 0bbd
00000240: 3ccc 183b 86c6 92bd ccf3 bbbd d8c9 503c
00000250: cb56 4a3d 5057 d4bd 7771 5c3d 5158 713d
00000260: 260e c03c f28b b9bc 446f c6bd 44ea 253d
00000270: 10ef fdbc d554 b93d 8a35 8e3d 5929 4f3e
00000280: e4e9 813d c611 063e 7f5a 673d c218 e93d
00000290: 4711 073e 4587 c93c 3807 0b3d ab45 b73d
000002a0: 62b5 d03d 8605 b43c f51b d63c 33c8 d53a
000002b0: 5e42 b93d e1d8 8f3d f5ee 25be 3345 2f3c
000002c0: 1976 bebd 358e ff3c 92a6 f3bd c35d 0ebc
000002d0: d34f 83bc 5c56 b83c a9a3 a5bc cb5e c03d
000002e0: 1766 a03c 6ec4 96bd 7464 203c 61bf d33c
000002f0: 0884 803d e819 b3bd a338 513c d725 4bbc
00000300: da35 a8bd 9043 d0bd 627d 773c a06c 85bd
00000310: df12 4fbd abdb 30be e1b4 65bd a00d 393d
00000320: e930 bc3d 5403 f23d c264 3dbd bf08 32bd
00000330: 42c3 c83b c655 493d ed09 5c3d 728b 81bd
00000340: e6ba b33c 455f 9b3d d136 293e 8189 8f3d
00000350: ea19 fdbd 7d83 733d 78e0 603d 7857 803d
00000360: 324c e23c 44c0 a5bc 1a42 be3d 1e01 063e
00000370: d9c4 263e c20f 91bb d747 383c 6206 153e
00000380: 3077 063e 9c78 a23d 97c8 6c3d d533 3b3c
00000390: 2915 b03d 83e2 8cbc ce09 713d d91a 243d
000003a0: bd4f c03c ed8c 06bd 7060 d2bd 0377 283d
000003b0: 2126 72bd ec54 64bd 0879 b9bd 6150 87bd
000003c0: 6568 febc 334c 02bd b065 62bd 6f5b e0bd
000003d0: 43cd 4f3d e905 e4bc b01e 18bd 2887 0dbb
000003e0: 0e59 74bb 111b b63d 795e 65bb cd5a 8fbd
000003f0: 6862 95bd 741a 7ebd 26f2 f9bc 1de8 c2bd
-0.0023322888 -0.07675467 0.024970924 -0.026821462 0.05036988 -0.033906545 -0.013908049 -0.0071535977
-0.020151181 -0.006710025 -0.024140298 -0.074195504 -0.09692497 -0.0029229699 -0.03704894 -0.03980177
-0.057441562 -0.011324365 -0.021734165 -0.05476054 -0.07392189 -0.07147817 -0.097698644 -0.00020773361
-0.04574532 0.049883734 -0.005373883 -0.04159788 0.076396406 0.07593197 0.051843844 -0.07434743
-0.10837913 -0.079811364 -0.12808912 -0.060892086 -0.073305674 -0.09714203 -0.057359513 -0.07389223
-0.11012037 -0.1259279 -0.10187952 -0.03817848 -0.10609683 -0.092999615 -0.11745241 -0.06766033
-0.024493126 0.0076972265 0.09142818 -0.042445157 -0.019926814 0.055335365 0.0752569 0.061091475
-0.047214046 -0.03502059 -0.013014976 0.011612602 0.030335702 -0.08947399 -0.0031158112 0.06870912
0.009210339 -0.054332707 -0.0023365594 0.0016650234 0.0454063 -0.10188206 -0.0405853 -0.09529503
-0.09159611 -0.034588452 -0.013839804 0.0028508997 -0.05032515 -0.06500113 -0.07648463 0.065191254
-0.0407601 -0.045914866 -0.019089065 -0.025411138 -0.04186826 -0.06508498 0.02218179 0.009889843
-0.021284243 -0.105787806 -0.005588484 0.0077709053 0.03369296 0.0011630749 -0.009186999 -0.017089788
-0.07178426 -0.10831649 -0.010378179 -0.006549031 0.039052777 -0.049025528 -0.0634779 -0.04252971
-0.012804456 -0.019450363 -0.122474775 -0.040328566 -0.07676049 -0.039912246 -0.010065399 -0.089341655
-0.0457594 0.05808472 0.06875357 -0.0803271 -0.07929691 -0.033897124 0.109545544 -0.078815594
-0.14546135 -0.030753942 0.0071985936 0.021147056 -0.05450087 -0.025816858 -0.036242984 0.03450007
0.01652504 0.007870414 0.00717592 -0.0654576 -0.005952848 -0.034703616 0.046082065 -0.047768656
-0.122110926 0.007838191 -0.025178881 -0.074455604 -0.09274217 -0.15965922 -0.10148078 -0.034075424
0.0023315093 -0.071667716 -0.0917736 0.012743436 0.04939918 -0.10368216 0.053819146 0.058922116
0.023444247 -0.022649739 -0.09689191 0.040506616 -0.030997783 0.090493836 0.069438055 0.20230617
0.06343439 0.13092718 0.05648279 0.11381675 0.13190185 0.024600634 0.03394243 0.08948835
0.10190846 0.02197529 0.026136378 0.0016310274 0.09045862 0.07023788 -0.16204436 0.010697651
-0.09299869 0.03119574 -0.11897005 -0.008689347 -0.016029274 0.022502117 -0.02021964 0.0939308
0.01957993 -0.07361685 0.009789575 0.025848093 0.06275183 -0.087451756 0.012769851 -0.012399158
-0.08213396 -0.101691365 0.015105577 -0.06514859 -0.050555106 -0.17271297 -0.056080703 0.04517901
0.09189016 0.11817041 -0.04623867 -0.043465372 0.006126792 0.049154066 0.053720403 -0.06325425
0.021939706 0.075865306 0.16524817 0.07008649 -0.12358458 0.05945157 0.05490157 0.06266683
0.027624223 -0.020233281 0.092899516 0.13086364 0.16286029 -0.0044269273 0.011247597 0.14553216
0.13131404 0.07933161 0.057808485 0.011425932 0.08597786 -0.017197853 0.05884724 0.040064666
0.023475522 -0.03284924 -0.102723 0.041129123 -0.059118394 -0.05574505 -0.09056288 -0.06607128
-0.031055639 -0.03181095 -0.055272758 -0.109549396 0.050732862 -0.02783485 -0.03713864 -0.0021595452
-0.0037284526 0.08891881 -0.0034998937 -0.06999741 -0.0729416 -0.062036946 -0.030510973 -0.09516928

conv2.bias f4 [20]
00000000: 419e 5c3d 673b 28bd 65c2 78ba f3e8 f4bc
00000010: f514 65bd 9bed a6bc bd28 c63c 3898 cabc
00000020: 05f8 8abd 3a67 a63c 712f 63bd 4e6c 85bd
00000030: d983 10bd ef0f 0e3b 6b1c 93bd c1e1 8ebc
00000040: 13f8 32bd 1ae3 08bd e5a6 823c 9d49 2d3c
0.05386186 -0.041072275 -0.0009489416 -0.029896235 -0.05592819 -0.020376971 0.024189347 -0.024730787
-0.06785587 0.020312894 -0.055465166 -0.06514798 -0.03528199 0.0021676978 -0.07183155 -0.017441632
-0.043693613 -0.033419706 0.015948722 0.010576633

fc1.weight f4 [50, 320]
00000000: f714 21bc b750 0cbd 6836 f13d 9616 6e3d
00000010: f062 1abc bd3f 483d 9d12 a23b 92d2 53bc
00000020: 6708 5ebd e807 223c 121d 09bd 6f6c 37bd
00000030: f912 683c ba4e b23d 2b62 8f3d c6d4 693d
00000040: 2d39 1dbd 47b7 13bd 8093 f63c 6595 d13c
00000050: d60e 17bd afcc 29bc 8747 913d 1b16 c83d
00000060: 17ad c13a 9147 3e3c 5864 9c3c 02e9 0e3d
00000070: 4eec 2abe c87e abbd 2694 593c 75c4 223c
00000080: ca4a c1bb 3b55 77bc 4000 16bc df6e 1c3d
00000090: c03b c13c a9e2 ce3b 4728 10bd 70f6 56bd
000000a0: 4620 f6bc 09c7 49bd 7fec 653d 9813 6ebc
000000b0: 9162 17bd cddd a23d 29b2 d43d 1ac0 143d
000000c0: cdb5 0abd 6c11 c63c 2a14 8cbc 1b75 90bc
000000d0: dd2b ecbc 8d18 e2bc fdc3 01bd 9d4d 24bd
000000e0: 6403 fdbd 7506 523a 904f f13c 63de fcbc
000000f0: 8bf9 e53d 9af7 263e 0baa 383d bd3e 903c
00000100: 26c2 4dbd 4b15 39bd 461d 64bc 4c16 fb3a
00000110: 18bc d3bc 6e24 093d 0229 103c 21eb 12bd
00000120: d77a 08bd f73a 233d 19c9 863c d38d 57bd
00000130: 8aa5 db3c cd9d b03d 134a 093d a4e4 6ebd
00000140: 4484 d5bc 0fa1 a23c a51c 1abc 7c31 5b3d
00000150: 3f25 b43c 98c0 11bc 26f2 87bb 6853 9ebc
00000160: 3103 6c3d 103e 613d 2a1b fe3c c746 bebc
00000170: d8cf 2a3d ad1c 7d3b 3446 1cbd 5599 abbd
00000180: 9b1e b03c ff61 9abc d996 af3c 81a2 8a3d
00000190: c22e 65bd 9044 21bd fecc 333d b29d 213d
000001a0: 84e6 123d 2d45 dc3c 55fc 71bd e01c f039
000001b0: 9b81 993d 604f 5b3d cbfd 933d 9aac dc3c
000001c0: 8756 f93c cd55 1b3d 088d 273d a858 de3d
000001d0: c48d 853c a46d c33d 6270 e53c 7122 323c
000001e0: 2860 85bc a74d 113d 8fd2 103d 2d63 cdbc
000001f0: 124a bdbd e0cc 85bd 8d61 843c 2172 14bc
00000200: c7d5 4f3d 1ce9 2f3d 1332 f43c 0da4 ec3c
00000210: 771f bc3c 4a55 3dbd 0b28 d7bc 4818 e43c
00000220: 05c0 4f3c 2b3f 323d b1d6 83bb 4b74 dcbb
00000230: 32a5 32bd d9a4 29bc 219a 293d e92d 6c3d
00000240: be9f 0d3d b36a 2abc d7ef 343d f410 ddbc
00000250: a1f5 dfbc 3ce3 88bc 9c96 033d 2eb4 62bc
00000260: 3247 91bb a096 29bc 251c 39bc 5074 aabc
00000270: 5561 aa3c 5830 0a3d e3cc 5ebd aa61 b8bc
00000280: 1405 bdbc 465c 463c c26c 213d b3dd 10bd
00000290: da2e 2abd 2308 fc3c 6c1f f6bc 48fd e73c
000002a0: be72 fa3d bcc5 493d cc8d e13b 4961 c8bc
000002b0: 96ea a93d 016b 12bd ccee f4ba 5c1c 22bd
000002c0: a23b af3c 405e 203d dcd2 8c3d 5433 8a3b
000002d0: 3247 5d3d 818a 30bc 9116 6c3d 125b d1bb
000002e0: dada c23b 3eb4 153d 5e85 f5bc f4e4 a0bd
000002f0: d429 0ebc 9944 a0bc 6178 3abd 6e41 a6bd
00000300: c780 1d3d f9a4 d0bb fb14 5c3c 8975 a0bb
00000310: cd75 08bd 22f9 27bd 76e6 5b3c 1105 d6bc
00000320: e8ab e23c 17ac cb3c 9683 313d 5b46 74bb
00000330: 60e0 aabd 65bd 3fbc 6599 49ba b9ec c53b
00000340: 5660 e23d c78f 963c 43e3 bc3c 66ca 443c
00000350: 3054 1ebd 05b3 33bd c22a 59bd b13b 82bc
00000360: 9fff a6bb eade 7b3c f6d6 0a3c 24a3 023d
00000370: ab16 053e 0ebb 203d bb78 53bd 62dc 90bd
00000380: 2d32 3e3d ba5c 84bc 8a93 e23c daee edbb
00000390: 4fc3 5cbd 9fc6 663c 00fc d53c e7c0 1cbc
000003a0: 76ee 22bd c398 483c c6f4 9039 30e2 c3bc
000003b0: c7c1 033e f2c2 0b3d d811 a0bd 8b99 24bd
000003c0: 463f 83bc 2987 1e3d 630f debb dcf3 663d
000003d0: 846a adbd 315c a1bc ac7a 4a3c 3f9f 0dbd
000003e0: 1c15 26bd a7ed c3bc e4ea 173b b7fc 50bd
000003f0: 452d aa3c c10f 433d 4de8 8fbd 79a8 9dbd
-0.009831659 -0.034256663 0.11777955 0.05812701 -0.009423003 0.04888891 0.0049460665 -0.012928622
-0.05420723 0.00988958 -0.03347499 -0.044781145 0.01416468 0.08706422 0.07001146 0.057087682
-0.038384605 -0.03606346 0.03009963 0.025583932 -0.036879383 -0.010363742 0.07093721 0.09769841
0.0014776316 0.011613742 0.019090816 0.034890182 -0.16691706 -0.08373791 0.01327995 0.009934534
-0.005898808 -0.015096004 -0.009155333 0.038191672 0.023588061 0.006313641 -0.03519466 -0.052481115
-0.030044686 -0.04926208 0.056133743 -0.014531039 -0.036959235 0.079524614 0.10385544 0.036316015
-0.033864785 0.02417823 -0.017099459 -0.017633965 -0.02882951 -0.027599597 -0.03168105 -0.04011308
-0.12354162 0.00080118264 0.029456884 -0.030867761 0.11229237 0.1630539 0.04508404 0.017608041
-0.050233983 -0.045186322 -0.013922995 0.0019156425 -0.025846526 0.033482008 0.0087988395 -0.035868768
-0.033320274 0.039851155 0.016453313 -0.05262549 0.026812334 0.08623848 0.03351791 -0.058323517
-0.026064046 0.01985219 -0.009406243 0.05351399 0.021990417 -0.008896016 -0.0041487394 -0.01932688
0.05762023 0.054990828 0.031018812 -0.023227109 0.04170212 0.0038621828 -0.03815289 -0.08378855
0.021498969 -0.018845556 0.021434234 0.067692764 -0.055952795 -0.039372027 0.043896668 0.03945703
0.035864368 0.026888454 -0.059078533 0.0004579788 0.074954234 0.053542495 0.072261415 0.026937772
0.030436767 0.037923623 0.040905982 0.108567536 0.01630295 0.09542397 0.02800769 0.010872469
-0.016281202 0.035474446 0.035357054 -0.025071705 -0.092426434 -0.065332174 0.016159797 -0.009060414
0.050740983 0.04294692 0.029809033 0.02888682 0.022964222 -0.046223916 -0.026264211 0.02784361
0.012680058 0.043517273 -0.004023396 -0.0067277304 -0.043614574 -0.010354244 0.041406754 0.05766097
0.03457617 -0.010401416 0.04417404 -0.026985623 -0.027338805 -0.016709916 0.032126054 -0.0138369035
-0.004433536 -0.010350853 -0.011298214 -0.020807415 0.020798365 0.03373751 -0.054394614 -0.022507507
-0.02307371 0.012106961 0.03941036 -0.03536768 -0.041548587 0.030765599 -0.03004428 0.028319016
0.122289166 0.04926084 0.0068833586 -0.024460452 0.08296697 -0.035746578 -0.001868689 -0.039577827
0.02139074 0.039152384 0.06876156 0.0042175446 0.054022975 -0.010775209 0.05763871 -0.0063890303
0.0059464993 0.036548845 -0.029970821 -0.07856169 -0.008676965 -0.01956396 -0.04552496 -0.081179485
0.03845289 -0.0063673225 0.0134327365 -0.004896824 -0.03331547 -0.041009076 0.013421645 -0.026125463
0.027669862 0.024862332 0.04333838 -0.003727338 -0.083435774 -0.01170287 -0.0007690399 0.0060401824
0.11053531 0.018379105 0.023057586 0.012011146 -0.038654506 -0.0438719 -0.053019293 -0.015897604
-0.0050963904 0.015372971 0.008474102 0.031893864 0.12996928 0.03924089 -0.05162881 -0.07073285
0.04643457 -0.016157497 0.027658243 -0.0072611393 -0.0538972 0.014085441 0.02612114 -0.009567476
-0.039778195 0.0122434525 0.0002764819 -0.023911566 0.12866889 0.03412146 -0.078159034 -0.040185492
-0.016021382 0.038703118 -0.0067767366 0.056384906 -0.08467582 -0.01969728 0.012358349 -0.034575697
-0.040547475 -0.023917032 0.0023180777 -0.051022258 0.02077354 0.047622446 -0.0702673 -0.07698149

fc1.bias f4 [50]
00000000: 375f 603d ec42 5e3d 6b59 04bc 1f40 87bc
00000010: ee0f 513c 6189 2cbc 1a27 783d 1e79 f53c
00000020: e086 5bbc 4427 a6bb 3099 2a3d f534 d0bc
00000030: c06a bf3d 4090 023d cb58 973d 405e b9bc
00000040: d348 de3b c04b 9d3d b5e2 433d cea9 ca3d
00000050: 636b a93d 3350 af3c 6e0b f13c 9571 ca3c
00000060: a11c ddbc 9086 953c 4408 5f39 e9f5 613d
00000070: 614c 873c c271 2cbd 449a b1bc a178 253d
00000080: 0438 8bba 62d6 b3bb c489 8b3d 5611 1c3d
00000090: b813 f4bb 85c8 b63d 31a6 6e3d caad 5ebd
000000a0: 55f2 143d d28c 773c 5087 80bd 085a 393c
000000b0: a6c9 983d 40ff 963c 26ff 9c3d 6111 4d3c
000000c0: 88d0 30bc e767 86ba
0.054778304 0.05426304 -0.0080779595 -0.016510068 0.012760146 -0.010530801 0.060584165 0.02996498
-0.013398856 -0.005070599 0.041649997 -0.025415877 0.09346533 0.03187585 0.07389983 -0.02262795
0.0067835837 0.07680464 0.047823627 0.09895669 0.082724355 0.021400547 0.029424395 0.024712363
-0.02699119 0.018252641 0.00021270016 0.05516616 0.016515912 -0.042100675 -0.021680005 0.040398244
-0.0010621552 -0.005488203 0.06813386 0.03810247 -0.0074486397 0.08924965 0.05826396 -0.054364957
0.03636392 0.015109258 -0.06275809 0.011312969 0.074603364 0.01843226 0.07665853 0.0125163505
-0.010791905 -0.0010254354

fc2.weight f4 [10, 50]
00000000: d750 8fbe bf7b 47be a76f 34be 101b 48be
00000010: 7f8d cebd 6386 423d abfe 86bd ab45 2abe
00000020: a4dd 073e 4c84 283e d95a 5c3d c355 c2bd
00000030: 512f 573e ebd6 963e 5115 253e eb41 e9bd
00000040: 55a0 403e 2a6f 89be c700 1fbe b964 5fbe
00000050: 93ae 52be ad31 6bbe 7168 41be 4c9b 77be
00000060: dd78 263e 4d73 233d 7397 b0bd 4502 fbbd
00000070: aeef 323e 2067 443d 2861 39be 9bb1 513e
00000080: fb67 223e 84c3 fcbb cb73 6abd 7dc8 3dbe
00000090: e142 19be 7a01 37be 1c13 b33d 6a8d 02be
000000a0: 88ef 263e d30c 853e 090f 26bd b526 fcbd
000000b0: 7916 023e a900 293d 6238 553e 70cd 823e
000000c0: 49c2 48be fa30 153e e25e ce3d 163e 1c3e
000000d0: 7897 59be 0c32 083e b9d5 83bd cd76 1fbe
000000e0: fee3 ed3d 44d1 a03d c484 65be d8bf a7bb
000000f0: 0ece 7d3e d578 7abe e465 153e 72eb a0bd
00000100: 396b 7bbe 3525 ae3d 1fab 38be bdd3 433e
00000110: 1b5d 423e 307f 523e 99f3 363e b446 8cbe
00000120: 2c24 9dbe f89b 4b3e c532 c2bc 8183 c33e
00000130: 42a8 9b3e a2bf d63d cdfe 46be c14d 23be
00000140: 3bf6 123e c0b4 d9bd 139d 30be c7b1 40be
00000150: e887 84bd 9e74 553e b26c 343d 8355 5e3e
00000160: 3383 7a3d 9a49 57be 7f81 453e e1f6 dcbd
00000170: ffc5 05be 5d8b 6c3e 630e 4fbe 36b6 423d
00000180: 2cac ed3d 544c c3bd 1899 97bd 1570 2bbe
00000190: bfdf 41be a2d6 d53d c059 0c3e 2101 f73d
000001a0: fd49 1e3e 22a0 e53d 8a59 2d3e fd8d 3c3e
000001b0: 1c0f eb3d 344a 393e b46f 703d a738 113e
000001c0: f2a6 803d a46d e4bd bdcd c7bd 360f 09be
000001d0: 3c88 13be 648a 1e3e d728 fcbd 1189 91be
000001e0: 77ec 0dbe fd65 84bd 7515 28be 3e48 7b3e
000001f0: b361 a2bd 6d63 613d 931b 09be 8fec 27be
00000200: 7d9b 2ebd 3c29 febd 0af5 493e 037b a03d
00000210: 33bf e2bd fae1 4ebe 368a 0d3e fb6f f6bd
00000220: b710 463e 1f04 723e 6e0e 3fbe 7a67 69bd
00000230: afd8 f6bb 1242 4f3e 5031 fa3d 497a 3dbd
00000240: afcc aabd 6337 cd3d 1dec 163e fdb4 453e
00000250: d2c2 063e a8eb 1f3d ee17 df3d 98fc 22be
00000260: 56fe 1c3e 2683 153e 8f90 3ebc 4172 693d
00000270: a6b5 26be 298c 4c3e c30d 0abe 13d9 d1bd
00000280: d6c1 93bc cb53 a3bd 86b2 45be 0974 82bd
00000290: 21d0 7bbd 8711 463e b23b e9bc 1909 353e
000002a0: 70ce 2c3e 1a07 efbd f163 37be 9745 11be
000002b0: 3178 0b3e 8008 d3bc 5092 583e 93dd 40be
000002c0: 5cf6 1cbe ecf1 443e ce30 81bd ce48 243e
000002d0: 6a7b 253e a7ed 243e ca9c 3a3e fbdf aabd
000002e0: 7929 3cbe 771b 41be 9aef 293e 891d 563e
000002f0: 08e4 31be 524c 7c3e 2d65 65bd 6ce5 59bd
00000300: 5e7a c0bd cc73 57bd efef 473c 6fe9 e73d
00000310: e414 57bd 4adf 7bbd e31b 013e a0a4 d13d
00000320: 2ea3 473e dd56 db3d 099a 2e3e 1c4b f9bd
00000330: a46a 133e 441d b1be b5c2 623e c795 da3d
00000340: 51a6 093e 6d25 e2bc 96b9 833e 2e25 953e
00000350: 266c 0dbe 3a00 64bd 78e0 29be 6124 57be
00000360: 82ca 8bbe 79cc 37be dc36 793e 9472 893d
00000370: c5d8 413e 25d4 7a3e b260 143d 3628 9bbd
00000380: 686e eabd b15d 5a3c dff7 d3bc 36cd 1c3e
00000390: 9b1c 83be c6f4 55be 83d7 c4bd 3553 8fbe
000003a0: 2e94 a1bd 2955 883e 644c 943e 3da1 403e
000003b0: fad0 0fbe ddb2 98bd 3cda c5bd 44e3 9e3d
000003c0: b6fb 4abe 096e f83d 6e57 b9bd d654 c3bd
000003d0: 9969 6d3e a915 d9bc 8e5e 2f3d ff1e 143d
000003e0: 0668 1dbe 6dc0 8fbe 3fc8 fe3d e038 d03d
000003f0: 5136 fcbd 235e 6dbe 7f04 0b3e ebe3 6fbe
-0.27991363 -0.19480799 -0.17620717 -0.19541574 -0.10085582 0.047491442 -0.06591543 -0.16628139
0.13268143 0.16456717 0.053797577 -0.09489014 0.21014144 0.29460844 0.16121413 -0.11389526
0.18811162 -0.26842624 -0.1552764 -0.21815766 -0.20574407 -0.22968169 -0.18887497 -0.24180335
0.16257043 0.03990488 -0.08622637 -0.12256292 0.17474243 0.04794991 -0.18103468 0.20477907
0.15859978 -0.007713737 -0.057239335 -0.18533511 -0.14966919 -0.17871657 0.08743879 -0.12749258
0.16302311 0.25986347 -0.040541682 -0.1231207 0.12703885 0.041260395 0.2082229 0.2554736
-0.19605364 0.14569464 0.10076691 0.15258059 -0.21249187 0.13300341 -0.06437249 -0.15572663
0.11615752 0.07852414 -0.22413927 -0.005119305 0.24785635 -0.24460156 0.1458965 -0.07857408
-0.24552621 0.085031904 -0.18034028 0.1912374 0.1898083 0.2055633 0.17866363 -0.27397692
-0.3069166 0.19883716 -0.02370585 0.38186267 0.30401808 0.1048577 -0.19433136 -0.1594763
0.14351742 -0.106301785 -0.17247419 -0.18817817 -0.064712346 0.20845267 0.044048972 0.21712308
0.061160278 -0.2102417 0.1928768 -0.10789276 -0.13063811 0.23100038 -0.20220332 0.04753705
0.11605105 -0.09536043 -0.07402247 -0.16741975 -0.18933009 0.104413286 0.13706112 0.12060762
0.15457912 0.112121835 0.16928688 0.18413539 0.11477491 0.18094712 0.05870028 0.14181767
0.06281842 -0.11153725 -0.09756038 -0.13384709 -0.14407438 0.1548248 -0.12312477 -0.28424886
-0.13859735 -0.06464765 -0.16414435 0.24539277 -0.07928791 0.05502646 -0.13389425 -0.16398834
-0.042628754 -0.124102086 0.19722381 0.078359626 -0.110716246 -0.2020339 0.13822255 -0.12033077
0.19342314 0.23634385 -0.18657848 -0.05698345 -0.007533155 0.20240048 0.12216437 -0.0462592
-0.083398215 0.1002033 0.14738508 0.19307323 0.13160256 0.0390431 0.10893236 -0.1591667
0.15331396 0.1460081 -0.011631145 0.056993727 -0.16280231 0.19975342 -0.13481812 -0.10246482
-0.018036764 -0.079749666 -0.19306383 -0.06369788 -0.061477784 0.19342624 -0.028470848 0.17679252
0.16875625 -0.116712764 -0.17909218 -0.14186703 0.13620068 -0.025760889 0.21149564 -0.18834524
-0.15328354 0.19232911 -0.06308137 0.16043398 0.1616036 0.16106282 0.18223873 -0.08343502
-0.18375196 -0.18858133 0.16595307 0.20909704 -0.17372143 0.24638489 -0.056004692 -0.05319731
-0.0939834 -0.052600667 0.012203201 0.11323821 -0.052510157 -0.061492242 0.12608294 0.10236478
0.19495842 0.10709927 0.17050947 -0.12172529 0.14396149 -0.3459264 0.22144587 0.10673099
0.13442351 -0.027605737 0.25727528 0.29129928 -0.13810787 -0.05566428 -0.16589534 -0.21009971
-0.2730294 -0.17949094 0.24337333 0.06711307 0.18930347 0.24494989 0.03622503 -0.07576029
-0.114468396 0.013328002 -0.02587503 0.15312657 -0.25607762 -0.20894155 -0.09611418 -0.2799317
-0.07889591 0.26627472 0.2896453 0.18811508 -0.14044562 -0.074559905 -0.096607655 0.07758191
-0.19822583 0.121303625 -0.09049879 -0.095376655 0.23184814 -0.026499586 0.042814784 0.036162373
-0.15371713 -0.28076497 0.12440538 0.10167098 -0.123150475 -0.23180442 0.13575934 -0.23426788

fc2.bias f4 [10]
00000000: 555f 1f3e 2f3c 6d3e 85e1 05be cd81 59be
00000010: e54a 28bd cc88 d7bd 25df 53bd cfc0 b4bc
00000020: f557 8b3e 6b4c c4bc
0.1556371 0.2316749 -0.1307431 -0.21240921 -0.04108705 -0.10524139 -0.05172648 -0.022064595
0.27215543 -0.02396222
